custom-models/hi__holley .tflite (tflite, 206748 bytes, 9 tensors)

Const_1 f4 [32]
-0.0042233495 0.0070184493 -0.02381849 0.022940015 -0.028274862 0.006248911 0.019668462 -0.025360962
0.014227541 0.022566184 0.017573878 0.0021813542 0.009340839 -0.01731819 0.019182326 -0.0035613773
-0.0018049398 -0.0136177465 0.019257655 0.0029774331 0.00523991 0.00031945502 0.0053438963 0.0076212203
-0.0066060354 0.019967007 0.012102501 0.015875783 -0.020048015 -0.017130746 0.00015133094 -0.020951713
00000000: 0664 8abb 05fb e53b fe1e c3bc b3ec bb3c
00000010: afa0 e7bc aac3 cc3b c11f a13c cbc1 cfbc
00000020: a21a 693c b8dc b83c 18f7 8f3c 0df5 0e3b
00000030: 520a 193c e0de 8dbc 4124 9d3c ff65 69bb
00000040: bb93 ecba f81c 5fbc 3bc2 9d3c 0a21 433b
00000050: 8db3 ab3b 877c a739 da1b af3b 6ebb f93b
00000060: 7177 d8bb d991 a33c 9149 463c ee0d 823c
00000070: bc3b a4bc c755 8cbc 97ae 1e39 eda2 abbc

Const_2 f4 [32]
0.99824524 0.98571354 1.0079972 1.0009357 0.9991794 1.0100778 1.0034543 0.99760884
1.0210252 1.0079402 1.0232612 0.9979201 0.9839646 0.9929612 1.0313926 0.99831605
0.9897641 0.9852899 1.0151154 1.0089499 0.99798805 1.0550678 1.0314993 1.0048445
0.98469085 0.99802184 0.96649015 1.0009352 1.0779167 0.9730119 0.98296696 0.98544675
00000000: 008d 7f3f b957 7c3f 0d06 813f a91e 803f
00000010: 39ca 7f3f 3b4a 813f 3171 803f 4b63 7f3f
00000020: f4b0 823f 2f04 813f 39fa 823f b177 7f3f
00000030: 1be5 7b3f b532 7e3f ac04 843f a491 7f3f
00000040: 2e61 7d3f f53b 7c3f 4def 813f 4525 813f
00000050: 257c 7f3f 760c 873f 2b08 843f bf9e 803f
00000060: b314 7c3f 5c7e 7f3f e66b 773f a51e 803f
00000070: 2df9 893f 4f17 793f b9a3 7b3f 3d46 7c3f

Const_3 f4 [32]
-0.005709828 0.029511701 0.0041546887 0.0017390319 -0.0013072098 0.023619335 0.004999933 -6.7641995e-05
0.007328599 0.029204581 0.017676093 -0.002979281 0.0005708745 -0.020946264 0.06182253 -0.004680104
0.0037273732 -0.0039288285 0.010103323 0.013894574 -0.008475151 0.08626249 0.025409335 0.012488586
0.0259312 -0.0065137898 -0.0005307469 0.005949106 0.10355598 -0.005398121 0.01126866 -0.024201686
00000000: 8219 bbbb 86c2 f13c 0e24 883b 3af0 e33a
00000010: af56 abba 567d c13c 7ad6 a33b 05db 8db8
00000020: bf24 f03b 723e ef3c 74cd 903c 0a40 43bb
00000030: bda6 153a 8097 abbc 9f39 7d3d 8f5b 99bb
00000040: f246 743b 67bd 80bb 6888 253c 11a6 633c
00000050: 5cdb 0abc 63aa b03d 3d27 d03c ed9c 4c3c
00000060: ab6d d43c a171 d5bb d221 0bba b8f0 c23b
00000070: 2815 d43d b9e2 b0bb 30a0 383c 9d42 c6bc

Const_5 f4 [32]
-0.106519245 0.109257236 0.1816849 -0.16982351 0.04818291 -0.04201771 0.03394755 -0.108717866
-0.17117682 -0.14403558 0.059278492 0.042590026 0.07555127 0.1396595 0.09462897 -0.10486255
-0.14372806 -0.16300564 0.17445998 0.1170859 -0.065938026 0.1753265 0.015279274 0.13274764
-0.1687824 -0.034848515 -0.13291489 -0.113556296 0.053189218 -0.083336815 -0.03429598 0.03586382
00000000: c326 dabd 42c2 df3d 9b0b 3a3e 37e6 2dbe
00000010: 715b 453d c31a 2cbd 960c 0b3d 79a7 debd
00000020: fa48 2fbe 107e 13be 01ce 723d e172 2e3d
00000030: a0ba 9a3d e602 0f3e d5cc c13d 2dc2 d6bd
00000040: 732d 13be f3ea 26be a3a5 323e bbca ef3d
00000050: 840a 87bd ca88 333e ec55 7a3c ffee 073e
00000060: 4bd5 2cbe 51bd 0ebd d71a 08be 3490 e8bd
00000070: f0dc 593d 7eac aabd f179 0cbd f1e5 123d

Const_6 f4 [32]
1.2053688 1.1955525 1.2166959 1.0279264 1.008012 0.90463984 0.98883 0.9954933
1.0318927 1.3238376 0.9996207 0.99265075 1.2599427 1.0037018 0.98881096 0.96633327
1.0047059 1.2571543 1.0686241 1.0801277 1.1150607 1.3091832 1.1148709 1.4225073
1.0458019 0.99106216 1.2492315 0.9956282 1.0548832 0.9967719 0.99876493 0.99377865
00000000: 8649 9a3f dd07 993f b1bc 9b3f 1893 833f
00000010: 8a06 813f 7a96 673f f623 7d3f a6d8 7e3f
00000020: 0f15 843f 8373 a93f 24e7 7f3f 5c1e 7e3f
00000030: cd45 a13f 4d79 803f b722 7d3f 9e61 773f
00000040: 349a 803f 6fea a03f adc8 883f a041 8a3f
00000050: 4fba 8e3f 5193 a73f 17b4 8e3f b814 b63f
00000060: d6dc 853f 40b6 7d3f d1e6 9f3f 7de1 7e3f
00000070: 6a06 873f 712c 7f3f 0faf 7f3f 4768 7e3f

Const_7 f4 [32]
0.23150982 0.22955693 0.22994798 0.017071666 0.008167322 -0.084772736 -0.009493659 -0.0093897255
0.018983508 0.2775286 -0.0006112921 -0.010295281 0.24862565 0.0073643946 -0.010340374 -0.003768661
0.010631851 0.26392686 0.03179181 0.03389411 0.054345135 0.2709809 0.07681838 0.3194012
0.038334854 -0.009971725 0.237207 -0.010269481 0.042997755 -0.007964988 0.0013857629 -0.009382359
00000000: e910 6d3e f910 6b3e 7c77 6b3e e1d9 8b3c
00000010: 3bd0 053c 549d adbd 4b8b 1bbc 5dd7 19bc
00000020: 4d83 9b3c 3b18 8e3e 1e3f 20ba 8aad 28bc
00000030: b997 7e3e 0551 f13b ac6a 29bc a4fb 76bb
00000040: 3731 2e3c 6c21 873e 2138 023d 8dd4 0a3d
00000050: 0199 5e3d 02be 8a3e f452 9d3d 8e88 a33e
00000060: 0205 1d3d 7260 23bc 64e6 723e 5341 28bc
00000070: 6a1e 303d 957f 02bc 7da2 b53a 77b8 19bc

MatMul f4 [32, 1536]
0.022472776 0.014924348 -0.0070175733 -0.012896107 0.007188361 0.0140996175 0.006161831 -0.024170233
-0.0085373735 0.0181699 0.0034465622 0.026526798 -0.019575378 -0.0059770145 0.031117273 -0.008577395
-0.021809556 0.020934785 -0.009718528 0.01769453 -0.007514874 -0.003593097 0.006823571 -0.018452538
0.013075367 0.0042266785 0.0033272645 0.014317566 0.0025009816 -0.014927025 -0.0110048475 0.010651611
-0.015695922 -0.011771206 -0.009140808 0.02900665 0.0066138655 -0.019552395 0.026016941 -0.00026300678
0.0010609652 -0.01146034 0.004588276 0.013488815 -0.01782025 -0.008790029 0.010957698 0.002378638
-0.028232714 0.00025744276 -0.006937464 0.00405779 -0.028216474 -0.008344713 -0.0007547168 -0.0035933158
-0.0004039051 -0.020649796 -0.02335266 -0.017724568 -0.011283285 -0.016118096 0.0058200727 0.0029166772
-0.022572152 -0.01812046 0.041039526 -0.02253545 0.007870643 0.02319555 0.01337027 0.0034348676
0.02433251 0.010277387 -0.017129699 0.010559409 0.017316202 -0.0055804825 -0.020341486 -0.013749904
-0.0031601347 0.017089974 -0.002802301 0.023664832 0.013479644 0.008241421 -0.0077626766 -0.0138445385
0.035789132 -0.0043242564 0.03490333 0.008581836 0.0040097027 -0.015247596 -0.0049740956 0.010854767
0.0077624978 -0.005218351 -0.0036145416 -0.023047583 0.010003598 -0.019184424 -0.0022961125 0.023759957
-0.04227698 -0.0099845575 -0.001831066 0.006280855 -0.03800494 -0.0043176347 0.0097210305 -0.022749556
-0.03894447 -0.008120622 -0.016711721 -0.0040193927 -0.0059611592 -0.007394883 0.0028560983 -0.0323471
-0.014254631 -0.008396927 0.005190788 0.019466447 -0.005152697 0.0018169988 0.012176082 0.011728023
-0.02023804 -0.0003475649 0.0033094683 0.012279844 -0.0017276007 0.01660296 -0.0038071873 -0.02307903
-0.010730086 -0.013902063 -0.010065052 0.02165071 -0.001165109 -0.007640364 -0.022061393 0.006351652
0.012637606 -0.014921241 -0.023918997 -0.01706455 -0.014771001 -0.012030411 -0.0014222168 -0.0055266176
-0.01778553 -0.013829277 -0.02316241 0.009989702 0.0018632616 -0.020458834 0.0059804074 0.01696751
-0.013093452 0.022180269 0.030312486 0.006567702 0.011053409 0.0019170919 -0.024374561 0.0033903997
0.02401958 -0.012402009 -0.0010280588 0.018660324 0.004450693 0.007214459 -0.018241286 -0.020212749
-0.00029088388 0.0067163724 0.006678777 0.019865118 -0.024199344 -0.039491344 -0.02254115 0.016660942
-0.0036502597 0.019433426 0.012765058 -0.013484882 -0.008209628 -0.0044653188 -0.027353866 0.009505962
-0.010876274 0.007834254 0.001374871 -0.03611912 0.026235418 0.023615878 0.0047501028 -0.014591857
-0.014224 -0.0011854359 -0.008142293 -0.008378047 -0.034237966 0.010945328 -0.0048278547 0.017979946
-0.01978329 0.017403806 -0.029947022 -0.0031957447 0.0021395723 -0.010003316 0.0012804004 -0.018517189
0.02180247 0.02683653 0.0039608628 -0.021088889 -0.01337968 -0.021328026 0.019641291 -0.0020077515
-0.021200309 0.021116653 -0.025431799 -0.0014240298 0.020082414 -0.0017597395 -0.017785545 0.0105828475
0.010323007 0.033163346 -0.022701327 -0.0129000805 0.009200886 -0.0108016925 -0.0044647455 0.012315174
0.009681182 -0.008737306 -0.010790687 -0.015303718 -0.024526233 -0.0025251852 -0.011677534 0.019793455
-0.0010349622 -0.018419502 0.024583722 -0.013268067 0.02107651 -0.025306942 -0.00793518 0.020822097
00000000: d418 b83c 4185 743c acf3 e5bb 314a 53bc
00000010: 588c eb3b 1502 673c 2fe9 c93b a700 c6bc
00000020: 57e0 0bbc 0bd9 943c b8df 613b ba4e d93c
00000030: 8b5c a0bc d5da c3bb a7e9 fe3c 3488 0cbc
00000040: f4a9 b2bc 6d7f ab3c 763a 1fbc 1ef4 903c
00000050: 553f f6bb 2a7a 6bbb 4398 df3b c729 97bc
00000060: 103a 563c f37f 8a3b 3c0e 5a3b 3994 6a3c
00000070: 82e7 233b 7b90 74bc ad4d 34bc 1884 2e3c
00000080: bc94 80bc 04dc 40bc 54c3 15bc 5b9f ed3c
00000090: 20b9 d83b 582c a0bc 7b21 d53c 2ce4 89b9
000000a0: 1610 8b3a 26c4 3bbc 4059 963b 3100 5d3c
000000b0: c6fb 91bc 0e04 10bc eb87 333c ece2 1b3b
000000c0: 4b48 e7bc 62f9 8639 aa53 e3bb 36f7 843b
000000d0: 3c26 e7bc 43b8 08bc 30d8 45ba d67d 6bbb
000000e0: 3ac3 d3b9 c329 a9bc 144e bfbc 1d33 91bc
000000f0: 87dd 38bc 190a 84bc 4fb6 be3b b925 3f3b
00000100: 3ce9 b8bc 5c71 94bc 1019 283d 449c b8bc
00000110: dff3 003c 9804 be3c fa0e 5b3c 841b 613b
00000120: f954 c73c 7c62 283c 9553 8cbc 5f01 2d3c
00000130: b5da 8d3c 7bdc b6bb 30a3 a6bc 4747 61bc
00000140: 431a 4fbb 4600 8c3c cfa6 37bb c0dc c13c
00000150: bad9 5c3c 0607 073c 0d5e febb 34d4 62bc
00000160: a097 123d 7eb2 8dbb cbf6 0e3d d49a 0c3c
00000170: d363 833b 0ed1 79bc bdfd a2bb 31d8 313c
00000180: 8d5c fe3b b3fe aabb f2e1 6cbb 49ce bcbc
00000190: 22e6 233c a728 9dbc 607a 16bb 3ea4 c23c
000001a0: a02a 2dbd 4596 23bc 6100 f0ba a1cf cd3b
000001b0: 11ab 1bbd f27a 8dbb f544 1f3c 475d babc
000001c0: 3d84 1fbd 5b0c 05bc 05e7 88bc 1cb5 83bb
000001d0: d455 c3bb c650 f2bb 612d 3b3b 657e 04bd
000001e0: 418c 69bc 4493 09bc 7c17 aa3b 1978 9f3c
000001f0: f5d7 a8bb 5d28 ee3a 307e 473c e526 403c
00000200: 3fca a5bc 5f39 b6b9 aae3 583b 6631 493c
00000210: a970 e2ba ee02 883c 0182 79bb 3c10 bdbc
00000220: 3ecd 2fbc 7ac5 63bc e3e7 24bc d45c b13c
00000230: 92b6 98ba 055c fabb 18ba b4bc 8521 d03b
00000240: f60d 4f3c 3978 74bc c6f1 c3bc f5ca 8bbc
00000250: 1202 72bc 331b 45bc ad69 baba a118 b5bb
00000260: f6b2 91bc 3194 62bc 18bf bdbc d9ab 233c
00000270: af38 f43a 4999 a7bc 4bf7 c33b 73ff 8a3c
00000280: eb85 56bc 65b3 b53c e451 f83c e135 d73b
00000290: 5c19 353c ee46 fb3a 29ad c7bc 7831 5e3b
000002a0: b6c4 c43c cc31 4bbc eebf 86ba 89dd 983c
000002b0: 1ed7 913b 4567 ec3b c06e 95bc 3595 a5bc
000002c0: c681 98b9 0415 dc3b a4d9 da3b 2cbc a23c
000002d0: b43d c6bc adc1 21bd 38a8 b8bc 877c 883c
000002e0: 3239 6fbb d932 9f3c 8924 513c b2ef 5cbc
000002f0: ad81 06bc cf51 92bb 3715 e0bc e5be 1b3c
00000300: 6632 32bc 3e5b 003c 0435 b43a a4f1 13bd
00000310: a9eb d63c 1676 c13c c0a6 9b3b af12 6fbc
00000320: c80b 69bc a160 9bba 4167 05bc 1344 09bc
00000330: 1c3d 0cbd 0854 333c fb32 9ebb ae4a 933c
00000340: 9110 a2bc 6d92 8e3c 7553 f5bc b36f 51bb
00000350: 1138 0c3b f3e4 23bc 1cd3 a73a 5cb1 97bc
00000360: 189b b23c 48d8 db3c 20ca 813b 9bc2 acbc
00000370: 7236 5bbc 1db8 aebc c6e6 a03c 7b94 03bb
00000380: 45ac adbc d5fc ac3c 5956 d0bc 83a6 baba
00000390: e083 a43c 0fa7 e6ba feb2 91bc ae63 2d3c
000003a0: d421 293c 4ad6 073d 22f8 b9bc dc5a 53bc
000003b0: 50bf 163c 95f9 30bc 004d 92bb 95c5 493c
000003c0: d29d 1e3c eb26 0fbc 6ccb 30bc 72bc 7abc
000003d0: 3deb c8bc 947d 25bb 2153 3fbc e225 a23c
000003e0: 92a7 87ba 7fe4 96bc cd63 c93c 4e62 59bc
000003f0: a5a8 ac3c 8150 cfbc 8f02 02bc 1a93 aa3c

MatMul_1 f4 [32, 32]
-0.11650652 0.014988452 -0.0949575 0.16510548 0.07977365 -0.05482485 0.09923812 -0.0439787
0.1446727 0.01507117 0.0027993727 0.1175645 -0.08118723 -0.14746533 0.10034165 0.085783936
0.13138211 0.034029435 0.016464403 -0.1688087 -0.098651856 0.040904626 -0.083199486 0.011904275
0.12012748 -0.094392926 0.11197712 0.17135736 -0.040447257 0.11980195 0.11469368 -0.09313882
0.0006687683 -0.0862985 0.0147096785 0.13607268 0.0919358 0.068541236 0.07125644 -0.036045626
-0.13785759 0.08370159 0.07639293 0.08246847 0.03101165 0.1294347 -0.11506473 0.11807772
0.124681145 0.041825596 0.076973535 0.086850196 0.1278209 -0.24396254 0.07261072 0.014672109
-0.15804985 -0.059218463 -0.13933237 -0.07549545 -0.04665423 0.12069344 0.0052641286 0.13347611
-0.015243733 -0.1543101 -0.17567341 0.1494191 -0.019437743 -0.031550728 -0.18329579 0.13481258
0.045563992 0.018094545 -0.10537204 0.0729033 0.01730314 0.008254539 -0.022248257 -0.058721155
0.13773654 -0.04194658 0.027376084 -0.14660323 -0.04791977 0.027408719 0.1320596 -0.075050436
0.17310324 -0.05353347 -0.09594396 -0.15422377 0.107478365 0.118940845 0.16985993 0.16263463
0.13142286 0.13147856 0.1435369 -0.12920661 0.111431025 0.060907137 -0.022512794 0.0354087
0.051588677 -0.08142247 0.037257474 0.15024333 -0.0474675 0.08791464 0.055411004 -0.04374857
0.034327 -0.007900345 0.069873676 -0.032832734 -0.13087656 0.037293144 -0.116454095 0.045442637
0.015517635 -0.16035524 -0.16906145 -0.03146462 0.1263925 -0.06942332 0.15460324 0.1323594
0.07371916 -0.13739511 0.043826405 0.016617265 -0.008392322 0.15471372 -0.08774284 0.035605256
0.023363808 -0.1521446 -0.11992279 0.087637484 0.066626176 -0.12843017 0.07397459 0.119156845
-0.10015081 -0.09682188 -0.09037215 -0.13326319 0.08974298 0.09515916 0.05706428 -0.094750665
-0.1439136 0.11924018 0.06404052 0.04324567 0.027161913 0.14530948 0.06741323 0.11061
0.16764921 -0.010217788 -0.17623131 -0.071744345 -0.06122771 0.17387162 0.006364309 -0.14735684
0.12191295 -0.117506266 0.09880939 0.08211297 -0.15121399 -0.120004125 -0.120654084 -0.098191515
0.10699733 -0.14076605 -0.12044564 0.109457806 0.08952127 -0.1161637 -0.055444714 0.089122064
-0.14659707 0.10626206 0.09317746 0.17167367 -0.115012825 -0.09622591 0.097092755 -0.17738307
-0.019911941 -0.06482854 0.08381434 -0.100816905 -0.050988525 -0.055505376 0.16981308 -0.09410669
0.10138248 -0.10024553 -0.04694594 -0.047555685 -0.041093502 -0.14976297 0.052495286 -0.027209753
-0.074573465 -0.0101666665 0.11713315 -0.07453742 -0.14649896 0.07556559 -0.1044843 0.17926265
-0.05130867 0.007585184 0.09917791 -0.13691618 0.008702746 -0.08727599 0.017132057 0.12706178
-0.113537505 -0.055988632 0.050245408 0.0012925306 -0.14780034 -0.08855423 -0.02136147 0.10103888
0.11517638 -0.13771613 0.03665563 0.13903709 0.06962317 0.03005334 -0.04405333 0.09448306
0.14314643 -0.13756204 -0.17220564 -0.112449504 -0.13685495 0.03263438 0.03863912 -0.085325964
-0.018308328 0.0643758 -0.08376991 -0.04001351 0.19073172 -0.026796764 -0.075813495 0.10221136
00000000: f89a eebd 2092 753c 1479 c2bd 6911 293e
00000010: 5e60 a33d 0690 60bd 5b3d cb3d 0223 34bd
00000020: 1525 143e 12ed 763c ae75 373b a8c5 f03d
00000030: 7e45 a6bd 2701 17be ec7f cd3d 7daf af3d
00000040: 0889 063e 7362 0b3d 5be0 863c 30dc 2cbe
00000050: fc09 cabd 9c8b 273d 7e64 aabd 260a 433c
00000060: 6505 f63d 1451 c1bd 4354 e53d 4e78 2f3e
00000070: 06ac 25bd ba5a f53d 85e4 ea3d 91bf bebd
00000080: 4850 2f3a 45bd b0bd dd00 713c a356 0b3e
00000090: d648 bc3d 595f 8c3d e5ee 913d 94a4 13bd
000000a0: 8a2a 0dbe bd6b ab3d e573 9c3d 3be5 a83d
000000b0: 250c fe3c 888a 043e 0fa7 ebbd bbd2 f13d
000000c0: d458 ff3d 5151 2b3d 4da4 9d3d 84de b13d
000000d0: 7be3 023e 51d1 79be eeb4 943d 4963 703c
000000e0: d2d7 21be 0f8f 72bd 25ad 0ebe 5c9d 9abd
000000f0: 8218 3fbd 1f2e f73d b67e ac3b f6ad 083e
00000100: dac0 79bc 7803 1ebe bbe3 33be 5201 193e
00000110: e73b 9fbc 563b 01bd e4b1 3bbe 4f0c 0a3e
00000120: 4fa1 3a3d 033b 943c 4ccd d7bd 534e 953d
00000130: 51bf 8d3c 0c3e 073c fa41 b6bc 9885 70bd
00000140: cf0a 0d3e 2dd0 2bbd cf43 e03c 281f 16be
00000150: 8547 44bd 4088 e03c a23a 073e 0bb4 99bd
00000160: fa41 313e e945 5bbd 447e c4bd d6ec 1dbe
00000170: 9e1d dc3d 4297 f33d c3ef 2d3e b189 263e
00000180: b793 063e 51a2 063e 56fb 123e bd4e 04be
00000190: f335 e43d c379 793d c06c b8bc b708 113d
000001a0: a64e 533d d3c0 a6bd 4b9b 183d 63d9 193e
000001b0: 486d 42bd 970c b43d a6f6 623d b331 33bd
000001c0: 789a 0c3d 7370 01bc ee19 8f3d 9e7b 06bd
000001d0: 8104 06be b2c0 183d 7c7f eebd 0f22 3a3d
000001e0: ae3d 7e3c 2a34 24be 721e 2dbe 0ce1 00bd
000001f0: 096d 013e d02d 8ebd 5050 1e3e 3989 073e
00000200: 12fa 963d 4eb1 0cbe 5183 333d ee20 883c
00000210: f37f 09bc 466d 1e3e 85b2 b3bd d1d6 113d
00000220: 7565 bf3c cbcb 1bbe 149a f5bd 487b b33d
00000230: 4e73 883d 3383 03be fd7f 973d 8108 f43d
00000240: de1b cdbd 8d4a c6bd 0915 b9bd 2576 08be
00000250: 2bcb b73d cee2 c23d 3cbc 693d a30c c2bd
00000260: 165e 13be 3234 f43d ad27 833d 5f22 313d
00000270: a982 de3c 02cc 143e f30f 8a3d 7f87 e23d
00000280: 3cac 2b3e 8268 27bc fb75 34be b3ee 92bd
00000290: e8c9 7abd 670b 323e b28b d03b b6e4 16be
000002a0: 7fad f93d 20a7 f0bd 945c ca3d d82a a83d
000002b0: d7d7 1abe b9c4 f5bd 7d19 f7bd a218 c9bd
000002c0: 6b21 db3d fa24 10be 34ac f6bd 6a2b e03d
000002d0: ed56 b73d 3ce7 edbd ff19 63bd a185 b63d
000002e0: 8b1d 16be ec9f d93d d3d3 be3d 39cb 2f3e
000002f0: d88b ebbd 1712 c5bd 91d8 c63d e8a3 35be
00000300: 5e1e a3bc d3c4 84bd daa6 ab3d 1879 cebd
00000310: 58d9 50bd 9b59 63bd 7be3 2d3e 02bb c0bd
00000320: 9ea1 cf3d 874d cdbd 634a 40bd c0c9 42bd
00000330: a951 28bd 775b 19be 4c05 573d fde6 debc
00000340: f9b9 98bd 1792 26bc 81e3 ef3d 13a7 98bd
00000350: d303 16be 22c2 9a3d ddfb d5bd a190 373e
00000360: 0a29 52bd 238d f83b ca1d cb3d c133 0cbe
00000370: f695 0e3c c1bd b2bd 8758 8c3c 7c1c 023e
00000380: 5a86 e8bd 5654 65bd 21ce 4d3d 216a a93a
00000390: f958 17be ec5b b5bd 40fe aebc 79ed ce3d
000003a0: 98e1 eb3d 7505 0dbe 3724 163d bd5f 0e3e
000003b0: 9896 8e3d 6c32 f63c 4471 34bd 5680 c13d
000003c0: fa94 123e 10dd 0cbe ad56 30be ed4b e6bd
000003d0: b423 0cbe a1ab 053d 0e44 1e3d 61bf aebd
000003e0: 59fb 95bc 76d7 833d 8f8f abbd 35e5 23bd
000003f0: 2d4f 433e e384 dbbc 1b44 9bbd 3154 d13d

MatMul_2 f4 [1, 32]
-0.32634842 -0.31074488 -0.3620436 0.12614663 0.03333813 -0.061446868 -0.15191469 0.10940478
0.17437041 -0.3247845 0.16451563 0.014669011 -0.3284565 0.05119902 0.08421796 0.015577607
0.024157511 -0.25820076 0.1820059 0.1834181 0.22830167 -0.32690498 0.10918162 -0.36563048
0.088002056 0.026272664 -0.3901466 0.046663515 0.227839 0.07298663 0.05845424 0.02954586
00000000: 2417 a7be f419 9fbe c75d b9be 952c 013e
00000010: 908d 083d b6af 7bbd 868f 1bbe 9d0f e03d
00000020: 288e 323e 274a a6be c976 283e 4b56 703c
00000030: 732b a8be 10b6 513d 777a ac3d 3839 7f3c
00000040: f9e5 c53c e432 84be c15f 3a3e f4d1 3b3e
00000050: eac7 693e 1760 a7be 9d9a df3d eb33 bbbe
00000060: 6c3a b43d c539 d73c 4cc1 c7be 3e22 3f3d
00000070: a04e 693e 047a 953d b76d 6f3d 290a f23c
